…
<div class=3D"input">
<div class=3D"prompt input_prompt">In&nbsp;[36]:</div>
<div class=3D"inner_cell">
    <div class=3D"input_area">
<div class=3D" highlight hl-ipython3"><pre><span></span><span class=3D"nb">=
print</span><span class=3D"p">(</span><span class=3D"n">VGG16</span><span c=
lass=3D"p">)</span>
</pre></div>

    </div>
</div>
</div>

<div class=3D"output_wrapper">
<div class=3D"output">


<div class=3D"output_area">

    <div class=3D"prompt"></div>


<div class=3D"output_subarea output_stream output_stdout output_text">
<pre>VGG(
  (features): Sequential(
    (0): Conv2d(3, 64, kernel_size=3D(3, 3), stride=3D(1, 1), padding=3D(1,=
 1))
    (1): ReLU(inplace)
    (2): Conv2d(64, 64, kernel_size=3D(3, 3), stride=3D(1, 1), padding=3D(1=
, 1))
    (3): ReLU(inplace)
    (4): MaxPool2d(kernel_size=3D2, stride=3D2, padding=3D0, dilation=3D1, =
ceil_mode=3DFalse)
    (5): Conv2d(64, 128, kernel_size=3D(3, 3), stride=3D(1, 1), padding=3D(=
1, 1))
    (6): ReLU(inplace)
    (7): Conv2d(128, 128, kernel_size=3D(3, 3), stride=3D(1, 1), padding=3D=
(1, 1))
    (8): ReLU(inplace)
    (9): MaxPool2d(kernel_size=3D2, stride=3D2, padding=3D0, dilation=3D1, =
ceil_mode=3DFalse)
    (10): Conv2d(128, 256, kernel_size=3D(3, 3), stride=3D(1, 1), padding=
=3D(1, 1))
    (11): ReLU(inplace)
    (12): Conv2d(256, 256, kernel_size=3D(3, 3), stride=3D(1, 1), padding=
=3D(1, 1))
    (13): ReLU(inplace)
    (14): Conv2d(256, 256, kernel_size=3D(3, 3), stride=3D(1, 1), padding=
=3D(1, 1))
    (15): ReLU(inplace)
    (16): MaxPool2d(kernel_size=3D2, stride=3D2, padding=3D0, dilation=3D1,=
 ceil_mode=3DFalse)
    (17): Conv2d(256, 512, kernel_size=3D(3, 3), stride=3D(1, 1), padding=
=3D(1, 1))
    (18): ReLU(inplace)
    (19): Conv2d(512, 512, kernel_size=3D(3, 3), stride=3D(1, 1), padding=
=3D(1, 1))
    (20): ReLU(inplace)
    (21): Conv2d(512, 512, kernel_size=3D(3, 3), stride=3D(1, 1), padding=
=3D(1, 1))
    (22): ReLU(inplace)
    (23): MaxPool2d(kernel_size=3D2, stride=3D2, padding=3D0, dilation=3D1,=
 ceil_mode=3DFalse)
    (24): Conv2d(512, 512, kernel_size=3D(3, 3), stride=3D(1, 1), padding=
=3D(1, 1))
    (25): ReLU(inplace)
    (26): Conv2d(512, 512, kernel_size=3D(3, 3), stride=3D(1, 1), padding=
=3D(1, 1))
    (27): ReLU(inplace)
    (28): Conv2d(512, 512, kernel_size=3D(3, 3), stride=3D(1, 1), padding=
=3D(1, 1))
    (29): ReLU(inplace)
    (30): MaxPool2d(kernel_size=3D2, stride=3D2, padding=3D0, dilation=3D1,=
 ceil_mode=3DFalse)
  )
  (classifier): Sequential(
    (0): Linear(in_features=3D25088, out_features=3D4096, bias=3DTrue)
    (1): ReLU(inplace)
    (2): Dropout(p=3D0.5)
    (3): Linear(in_features=3D4096, out_features=3D4096, bias=3DTrue)
    (4): ReLU(inplace)
    (5): Dropout(p=3D0.5)
    (6): Linear(in_features=3D4096, out_features=3D1000, bias=3DTrue)
  )
)
True
</pre>
</div>
</div>

</div>
</div>

</div>
<div class=3D"cell border-box-sizing text_cell rendered"><div class=3D"prom=
pt input_prompt">
</div><div class=3D"inner_cell">
<div class=3D"text_cell_render border-box-sizing rendered_html">
<p>Given an image, this pre-trained VGG-16 model returns a prediction (deri=
ved from the 1000 possible categories in ImageNet) for the object that is c=
…
<div class=3D"cell border-box-sizing code_cell rendered">
<div class=3D"input">
<div class=3D"prompt input_prompt">In&nbsp;[4]:</div>
<div class=3D"inner_cell">
    <div class=3D"input_area">
<div class=3D" highlight hl-ipython3"><pre><span></span><span class=3D"nb">=
print</span><span class=3D"p">(</span><span class=3D"n">model_scratch</span=
><span class=3D"p">)</span>
</pre></div>

    </div>
</div>
</div>

<div class=3D"output_wrapper">
<div class=3D"output">


<div class=3D"output_area">

    <div class=3D"prompt"></div>


<div class=3D"output_subarea output_stream output_stdout output_text">
<pre>Net(
  (conv1): Conv2d(3, 32, kernel_size=3D(3, 3), stride=3D(1, 1), padding=3D(=
1, 1))
  (conv2): Conv2d(32, 64, kernel_size=3D(3, 3), stride=3D(1, 1), padding=3D=
(1, 1))
  (conv3): Conv2d(64, 128, kernel_size=3D(3, 3), stride=3D(1, 1), padding=
=3D(1, 1))
  (conv4): Conv2d(128, 256, kernel_size=3D(3, 3), stride=3D(1, 1), padding=
=3D(1, 1))
  (conv5): Conv2d(256, 512, kernel_size=3D(3, 3), stride=3D(1, 1), padding=
=3D(1, 1))
  (pool): MaxPool2d(kernel_size=3D2, stride=3D2, padding=3D0, dilation=3D1,=
 ceil_mode=3DFalse)
  (dropout): Dropout(p=3D0.35)
  (fc1): Linear(in_features=3D25088, out_features=3D512, bias=3DTrue)
  (fc2): Linear(in_features=3D512, out_features=3D133, bias=3DTrue)
)
</pre>
</div>
</div>

</div>
</div>

</div>
<div class=3D"cell border-box-sizing text_cell rendered"><div class=3D"prom=
pt input_prompt">
</div><div class=3D"inner_cell">
<div class=3D"text_cell_render border-box-sizing rendered_html">
<p><strong>Question 4:</strong> Outline the steps you took to get to your f=
inal CNN architecture and your reasoning at each step.</p>
…
<div class=3D"cell border-box-sizing code_cell rendered">
<div class=3D"input">
<div class=3D"prompt input_prompt">In&nbsp;[14]:</div>
<div class=3D"inner_cell">
    <div class=3D"input_area">
<div class=3D" highlight hl-ipython3"><pre><span></span><span class=3D"nb">=
print</span><span class=3D"p">(</span><span class=3D"n">model_transfer</spa=
n><span class=3D"p">)</span>
</pre></div>

    </div>
</div>
</div>

<div class=3D"output_wrapper">
<div class=3D"output">


<div class=3D"output_area">

    <div class=3D"prompt"></div>


<div class=3D"output_subarea output_stream output_stdout output_text">
<pre>ResNet(
  (conv1): Conv2d(3, 64, kernel_size=3D(7, 7), stride=3D(2, 2), padding=3D(=
3, 3), bias=3DFalse)
  (bn1): BatchNorm2d(64, eps=3D1e-05, momentum=3D0.1, affine=3DTrue, track_=
running_stats=3DTrue)
  (relu): ReLU(inplace)
  (maxpool): MaxPool2d(kernel_size=3D3, stride=3D2, padding=3D1, dilation=
=3D1, ceil_mode=3DFalse)
  (layer1): Sequential(
    (0): Bottleneck(
      (conv1): Conv2d(64, 64, kernel_size=3D(1, 1), stride=3D(1, 1), bias=
=3DFalse)
      (bn1): BatchNorm2d(64, eps=3D1e-05, momentum=3D0.1, affine=3DTrue, tr=
ack_running_stats=3DTrue)
      (conv2): Conv2d(64, 64, kernel_size=3D(3, 3), stride=3D(1, 1), paddin=
g=3D(1, 1), bias=3DFalse)
      (bn2): BatchNorm2d(64, eps=3D1e-05, momentum=3D0.1, affine=3DTrue, tr=
ack_running_stats=3DTrue)
      (conv3): Conv2d(64, 256, kernel_size=3D(1, 1), stride=3D(1, 1), bias=
=3DFalse)
      (bn3): BatchNorm2d(256, eps=3D1e-05, momentum=3D0.1, affine=3DTrue, t=
rack_running_stats=3DTrue)
      (relu): ReLU(inplace)
      (downsample): Sequential(
        (0): Conv2d(64, 256, kernel_size=3D(1, 1), stride=3D(1, 1), bias=3D=
False)
        (1): BatchNorm2d(256, eps=3D1e-05, momentum=3D0.1, affine=3DTrue, t=
rack_running_stats=3DTrue)
      )
    )
    (1): Bottleneck(
      (conv1): Conv2d(256, 64, kernel_size=3D(1, 1), stride=3D(1, 1), bias=
=3DFalse)
      (bn1): BatchNorm2d(64, eps=3D1e-05, momentum=3D0.1, affine=3DTrue, tr=
ack_running_stats=3DTrue)
      (conv2): Conv2d(64, 64, kernel_size=3D(3, 3), stride=3D(1, 1), paddin=
g=3D(1, 1), bias=3DFalse)
      (bn2): BatchNorm2d(64, eps=3D1e-05, momentum=3D0.1, affine=3DTrue, tr=
ack_running_stats=3DTrue)
      (conv3): Conv2d(64, 256, kernel_size=3D(1, 1), stride=3D(1, 1), bias=
=3DFalse)
      (bn3): BatchNorm2d(256, eps=3D1e-05, momentum=3D0.1, affine=3DTrue, t=
rack_running_stats=3DTrue)
      (relu): ReLU(inplace)
    )
    (2): Bottleneck(
      (conv1): Conv2d(256, 64, kernel_size=3D(1, 1), stride=3D(1, 1), bias=
=3DFalse)
      (bn1): BatchNorm2d(64, eps=3D1e-05, momentum=3D0.1, affine=3DTrue, tr=
ack_running_stats=3DTrue)
      (conv2): Conv2d(64, 64, kernel_size=3D(3, 3), stride=3D(1, 1), paddin=
g=3D(1, 1), bias=3DFalse)
      (bn2): BatchNorm2d(64, eps=3D1e-05, momentum=3D0.1, affine=3DTrue, tr=
ack_running_stats=3DTrue)
      (conv3): Conv2d(64, 256, kernel_size=3D(1, 1), stride=3D(1, 1), bias=
=3DFalse)
      (bn3): BatchNorm2d(256, eps=3D1e-05, momentum=3D0.1, affine=3DTrue, t=
rack_running_stats=3DTrue)
      (relu): ReLU(inplace)
    )
  )
  (layer2): Sequential(
    (0): Bottleneck(
      (conv1): Conv2d(256, 128, kernel_size=3D(1, 1), stride=3D(1, 1), bias=
=3DFalse)
      (bn1): BatchNorm2d(128, eps=3D1e-05, momentum=3D0.1, affine=3DTrue, t=
rack_running_stats=3DTrue)
      (conv2): Conv2d(128, 128, kernel_size=3D(3, 3), stride=3D(2, 2), padd=
ing=3D(1, 1), bias=3DFalse)
      (bn2): BatchNorm2d(128, eps=3D1e-05, momentum=3D0.1, affine=3DTrue, t=
rack_running_stats=3DTrue)
      (conv3): Conv2d(128, 512, kernel_size=3D(1, 1), stride=3D(1, 1), bias=
=3DFalse)
      (bn3): BatchNorm2d(512, eps=3D1e-05, momentum=3D0.1, affine=3DTrue, t=
rack_running_stats=3DTrue)
      (relu): ReLU(inplace)
      (downsample): Sequential(
        (0): Conv2d(256, 512, kernel_size=3D(1, 1), stride=3D(2, 2), bias=
=3DFalse)
        (1): BatchNorm2d(512, eps=3D1e-05, momentum=3D0.1, affine=3DTrue, t=
rack_running_stats=3DTrue)
      )
    )
    (1): Bottleneck(
      (conv1): Conv2d(512, 128, kernel_size=3D(1, 1), stride=3D(1, 1), bias=
=3DFalse)
      (bn1): BatchNorm2d(128, eps=3D1e-05, momentum=3D0.1, affine=3DTrue, t=
rack_running_stats=3DTrue)
      (conv2): Conv2d(128, 128, kernel_size=3D(3, 3), stride=3D(1, 1), padd=
ing=3D(1, 1), bias=3DFalse)
      (bn2): BatchNorm2d(128, eps=3D1e-05, momentum=3D0.1, affine=3DTrue, t=
rack_running_stats=3DTrue)
      (conv3): Conv2d(128, 512, kernel_size=3D(1, 1), stride=3D(1, 1), bias=
=3DFalse)
      (bn3): BatchNorm2d(512, eps=3D1e-05, momentum=3D0.1, affine=3DTrue, t=
rack_running_stats=3DTrue)
      (relu): ReLU(inplace)
    )
    (2): Bottleneck(
      (conv1): Conv2d(512, 128, kernel_size=3D(1, 1), stride=3D(1, 1), bias=
=3DFalse)
      (bn1): BatchNorm2d(128, eps=3D1e-05, momentum=3D0.1, affine=3DTrue, t=
rack_running_stats=3DTrue)
      (conv2): Conv2d(128, 128, kernel_size=3D(3, 3), stride=3D(1, 1), padd=
ing=3D(1, 1), bias=3DFalse)
      (bn2): BatchNorm2d(128, eps=3D1e-05, momentum=3D0.1, affine=3DTrue, t=
rack_running_stats=3DTrue)
      (conv3): Conv2d(128, 512, kernel_size=3D(1, 1), stride=3D(1, 1), bias=
=3DFalse)
      (bn3): BatchNorm2d(512, eps=3D1e-05, momentum=3D0.1, affine=3DTrue, t=
rack_running_stats=3DTrue)
      (relu): ReLU(inplace)
    )
    (3): Bottleneck(
      (conv1): Conv2d(512, 128, kernel_size=3D(1, 1), stride=3D(1, 1), bias=
=3DFalse)
      (bn1): BatchNorm2d(128, eps=3D1e-05, momentum=3D0.1, affine=3DTrue, t=
rack_running_stats=3DTrue)
      (conv2): Conv2d(128, 128, kernel_size=3D(3, 3), stride=3D(1, 1), padd=
ing=3D(1, 1), bias=3DFalse)
      (bn2): BatchNorm2d(128, eps=3D1e-05, momentum=3D0.1, affine=3DTrue, t=
rack_running_stats=3DTrue)
      (conv3): Conv2d(128, 512, kernel_size=3D(1, 1), stride=3D(1, 1), bias=
=3DFalse)
      (bn3): BatchNorm2d(512, eps=3D1e-05, momentum=3D0.1, affine=3DTrue, t=
rack_running_stats=3DTrue)
      (relu): ReLU(inplace)
    )
  )
  (layer3): Sequential(
    (0): Bottleneck(
      (conv1): Conv2d(512, 256, kernel_size=3D(1, 1), stride=3D(1, 1), bias=
=3DFalse)
      (bn1): BatchNorm2d(256, eps=3D1e-05, momentum=3D0.1, affine=3DTrue, t=
rack_running_stats=3DTrue)
      (conv2): Conv2d(256, 256, kernel_size=3D(3, 3), stride=3D(2, 2), padd=
ing=3D(1, 1), bias=3DFalse)
      (bn2): BatchNorm2d(256, eps=3D1e-05, momentum=3D0.1, affine=3DTrue, t=
rack_running_stats=3DTrue)
      (conv3): Conv2d(256, 1024, kernel_size=3D(1, 1), stride=3D(1, 1), bia=
s=3DFalse)
      (bn3): BatchNorm2d(1024, eps=3D1e-05, momentum=3D0.1, affine=3DTrue, =
track_running_stats=3DTrue)
      (relu): ReLU(inplace)
      (downsample): Sequential(
        (0): Conv2d(512, 1024, kernel_size=3D(1, 1), stride=3D(2, 2), bias=
=3DFalse)
        (1): BatchNorm2d(1024, eps=3D1e-05, momentum=3D0.1, affine=3DTrue, =
track_running_stats=3DTrue)
      )
    )
    (1): Bottleneck(
      (conv1): Conv2d(1024, 256, kernel_size=3D(1, 1), stride=3D(1, 1), bia=
s=3DFalse)
      (bn1): BatchNorm2d(256, eps=3D1e-05, momentum=3D0.1, affine=3DTrue, t=
rack_running_stats=3DTrue)
      (conv2): Conv2d(256, 256, kernel_size=3D(3, 3), stride=3D(1, 1), padd=
ing=3D(1, 1), bias=3DFalse)
      (bn2): BatchNorm2d(256, eps=3D1e-05, momentum=3D0.1, affine=3DTrue, t=
rack_running_stats=3DTrue)
      (conv3): Conv2d(256, 1024, kernel_size=3D(1, 1), stride=3D(1, 1), bia=
s=3DFalse)
      (bn3): BatchNorm2d(1024, eps=3D1e-05, momentum=3D0.1, affine=3DTrue, =
track_running_stats=3DTrue)
      (relu): ReLU(inplace)
    )
    (2): Bottleneck(
      (conv1): Conv2d(1024, 256, kernel_size=3D(1, 1), stride=3D(1, 1), bia=
s=3DFalse)
      (bn1): BatchNorm2d(256, eps=3D1e-05, momentum=3D0.1, affine=3DTrue, t=
rack_running_stats=3DTrue)
      (conv2): Conv2d(256, 256, kernel_size=3D(3, 3), stride=3D(1, 1), padd=
ing=3D(1, 1), bias=3DFalse)
      (bn2): BatchNorm2d(256, eps=3D1e-05, momentum=3D0.1, affine=3DTrue, t=
rack_running_stats=3DTrue)
      (conv3): Conv2d(256, 1024, kernel_size=3D(1, 1), stride=3D(1, 1), bia=
s=3DFalse)
      (bn3): BatchNorm2d(1024, eps=3D1e-05, momentum=3D0.1, affine=3DTrue, =
track_running_stats=3DTrue)
      (relu): ReLU(inplace)
    )
    (3): Bottleneck(
      (conv1): Conv2d(1024, 256, kernel_size=3D(1, 1), stride=3D(1, 1), bia=
s=3DFalse)
      (bn1): BatchNorm2d(256, eps=3D1e-05, momentum=3D0.1, affine=3DTrue, t=
rack_running_stats=3DTrue)
      (conv2): Conv2d(256, 256, kernel_size=3D(3, 3), stride=3D(1, 1), padd=
ing=3D(1, 1), bias=3DFalse)
      (bn2): BatchNorm2d(256, eps=3D1e-05, momentum=3D0.1, affine=3DTrue, t=
rack_running_stats=3DTrue)
      (conv3): Conv2d(256, 1024, kernel_size=3D(1, 1), stride=3D(1, 1), bia=
s=3DFalse)
      (bn3): BatchNorm2d(1024, eps=3D1e-05, momentum=3D0.1, affine=3DTrue, =
track_running_stats=3DTrue)
      (relu): ReLU(inplace)
    )
    (4): Bottleneck(
      (conv1): Conv2d(1024, 256, kernel_size=3D(1, 1), stride=3D(1, 1), bia=
s=3DFalse)
      (bn1): BatchNorm2d(256, eps=3D1e-05, momentum=3D0.1, affine=3DTrue, t=
rack_running_stats=3DTrue)
      (conv2): Conv2d(256, 256, kernel_size=3D(3, 3), stride=3D(1, 1), padd=
ing=3D(1, 1), bias=3DFalse)
      (bn2): BatchNorm2d(256, eps=3D1e-05, momentum=3D0.1, affine=3DTrue, t=
rack_running_stats=3DTrue)
      (conv3): Conv2d(256, 1024, kernel_size=3D(1, 1), stride=3D(1, 1), bia=
s=3DFalse)
      (bn3): BatchNorm2d(1024, eps=3D1e-05, momentum=3D0.1, affine=3DTrue, =
track_running_stats=3DTrue)
      (relu): ReLU(inplace)
    )
    (5): Bottleneck(
      (conv1): Conv2d(1024, 256, kernel_size=3D(1, 1), stride=3D(1, 1), bia=
s=3DFalse)
      (bn1): BatchNorm2d(256, eps=3D1e-05, momentum=3D0.1, affine=3DTrue, t=
rack_running_stats=3DTrue)
      (conv2): Conv2d(256, 256, kernel_size=3D(3, 3), stride=3D(1, 1), padd=
ing=3D(1, 1), bias=3DFalse)
      (bn2): BatchNorm2d(256, eps=3D1e-05, momentum=3D0.1, affine=3DTrue, t=
rack_running_stats=3DTrue)
      (conv3): Conv2d(256, 1024, kernel_size=3D(1, 1), stride=3D(1, 1), bia=
s=3DFalse)
      (bn3): BatchNorm2d(1024, eps=3D1e-05, momentum=3D0.1, affine=3DTrue, =
track_running_stats=3DTrue)
      (relu): ReLU(inplace)
    )
  )
  (layer4): Sequential(
    (0): Bottleneck(
      (conv1): Conv2d(1024, 512, kernel_size=3D(1, 1), stride=3D(1, 1), bia=
s=3DFalse)
      (bn1): BatchNorm2d(512, eps=3D1e-05, momentum=3D0.1, affine=3DTrue, t=
rack_running_stats=3DTrue)
      (conv2): Conv2d(512, 512, kernel_size=3D(3, 3), stride=3D(2, 2), padd=
ing=3D(1, 1), bias=3DFalse)
      (bn2): BatchNorm2d(512, eps=3D1e-05, momentum=3D0.1, affine=3DTrue, t=
rack_running_stats=3DTrue)
      (conv3): Conv2d(512, 2048, kernel_size=3D(1, 1), stride=3D(1, 1), bia=
s=3DFalse)
      (bn3): BatchNorm2d(2048, eps=3D1e-05, momentum=3D0.1, affine=3DTrue, =
track_running_stats=3DTrue)
      (relu): ReLU(inplace)
      (downsample): Sequential(
        (0): Conv2d(1024, 2048, kernel_size=3D(1, 1), stride=3D(2, 2), bias=
=3DFalse)
        (1): BatchNorm2d(2048, eps=3D1e-05, momentum=3D0.1, affine=3DTrue, =
track_running_stats=3DTrue)
      )
    )
    (1): Bottleneck(
      (conv1): Conv2d(2048, 512, kernel_size=3D(1, 1), stride=3D(1, 1), bia=
s=3DFalse)
      (bn1): BatchNorm2d(512, eps=3D1e-05, momentum=3D0.1, affine=3DTrue, t=
rack_running_stats=3DTrue)
      (conv2): Conv2d(512, 512, kernel_size=3D(3, 3), stride=3D(1, 1), padd=
ing=3D(1, 1), bias=3DFalse)
      (bn2): BatchNorm2d(512, eps=3D1e-05, momentum=3D0.1, affine=3DTrue, t=
rack_running_stats=3DTrue)
      (conv3): Conv2d(512, 2048, kernel_size=3D(1, 1), stride=3D(1, 1), bia=
s=3DFalse)
      (bn3): BatchNorm2d(2048, eps=3D1e-05, momentum=3D0.1, affine=3DTrue, =
track_running_stats=3DTrue)
      (relu): ReLU(inplace)
    )
    (2): Bottleneck(
      (conv1): Conv2d(2048, 512, kernel_size=3D(1, 1), stride=3D(1, 1), bia=
s=3DFalse)
      (bn1): BatchNorm2d(512, eps=3D1e-05, momentum=3D0.1, affine=3DTrue, t=
rack_running_stats=3DTrue)
      (conv2): Conv2d(512, 512, kernel_size=3D(3, 3), stride=3D(1, 1), padd=
ing=3D(1, 1), bias=3DFalse)
      (bn2): BatchNorm2d(512, eps=3D1e-05, momentum=3D0.1, affine=3DTrue, t=
rack_running_stats=3DTrue)
      (conv3): Conv2d(512, 2048, kernel_size=3D(1, 1), stride=3D(1, 1), bia=
s=3DFalse)
      (bn3): BatchNorm2d(2048, eps=3D1e-05, momentum=3D0.1, affine=3DTrue, =
track_running_stats=3DTrue)
      (relu): ReLU(inplace)
    )
  )
  (avgpool): AvgPool2d(kernel_size=3D7, stride=3D1, padding=3D0)
  (fc): Sequential(
    (0): Linear(in_features=3D2048, out_features=3D512, bias=3DTrue)
    (1): ReLU()
    (2): Dropout(p=3D0.35)
    (3): Linear(in_features=3D512, out_features=3D133, bias=3DTrue)
  )
)
</pre>
</div>
</div>

</div>
</div>

</div>
<div class=3D"cell border-box-sizing text_cell rendered"><div class=3D"prom=
pt input_prompt">
</div><div class=3D"inner_cell">
<div class=3D"text_cell_render border-box-sizing rendered_html">
<p><strong>Question 5:</strong> Outline the steps you took to get to your f=
inal CNN architecture and your reasoning at each step.  Describe why you th=
…
